…
      "outputs": [
        {
          "output_type": "stream",
          "name": "stdout",
          "text": [
            "Model: \"model_5\"\n",
            "_________________________________________________________________\n",
            " Layer (type)                Output Shape              Param #   \n",
            "=================================================================\n",
            " input_8 (InputLayer)        [(None, 256, 256, 3)]     0         \n",
            "                                                                 \n",
            " sequential_3 (Sequential)   (None, 256, 256, 3)       0         \n",
            "                                                                 \n",
            " rescaling_5 (Rescaling)     (None, 256, 256, 3)       0         \n",
            "                                                                 \n",
            " conv2d_38 (Conv2D)          (None, 256, 256, 32)      896       \n",
            "                                                                 \n",
            " conv2d_39 (Conv2D)          (None, 256, 256, 32)      9248      \n",
            "                                                                 \n",
            " max_pooling2d_15 (MaxPoolin  (None, 128, 128, 32)     0         \n",
            " g2D)                                                            \n",
            "                                                                 \n",
            " batch_normalization_11 (Bat  (None, 128, 128, 32)     128       \n",
            " chNormalization)                                                \n",
            "                                                                 \n",
            " conv2d_40 (Conv2D)          (None, 128, 128, 64)      18496     \n",
            "                                                                 \n",
            " conv2d_41 (Conv2D)          (None, 128, 128, 64)      36928     \n",
            "                                                                 \n",
            " max_pooling2d_16 (MaxPoolin  (None, 64, 64, 64)       0         \n",
            " g2D)                                                            \n",
            "                                                                 \n",
            " conv2d_42 (Conv2D)          (None, 64, 64, 128)       73856     \n",
            "                                                                 \n",
            " conv2d_43 (Conv2D)          (None, 64, 64, 128)       147584    \n",
            "                                                                 \n",
            " max_pooling2d_17 (MaxPoolin  (None, 32, 32, 128)      0         \n",
            " g2D)                                                            \n",
            "                                                                 \n",
            " conv2d_44 (Conv2D)          (None, 32, 32, 256)       295168    \n",
            "                                                                 \n",
            " conv2d_45 (Conv2D)          (None, 32, 32, 256)       590080    \n",
            "                                                                 \n",
            " max_pooling2d_18 (MaxPoolin  (None, 16, 16, 256)      0         \n",
            " g2D)                                                            \n",
            "                                                                 \n",
            " conv2d_46 (Conv2D)          (None, 16, 16, 512)       1180160   \n",
            "                                                                 \n",
            " conv2d_47 (Conv2D)          (None, 16, 16, 512)       2359808   \n",
            "                                                                 \n",
            " max_pooling2d_19 (MaxPoolin  (None, 8, 8, 512)        0         \n",
            " g2D)                                                            \n",
            "                                                                 \n",
            " flatten_3 (Flatten)         (None, 32768)             0         \n",
            "                                                                 \n",
            " dense_8 (Dense)             (None, 10)                327690    \n",
            "                                                                 \n",
            " dropout_5 (Dropout)         (None, 10)                0         \n",
            "                                                                 \n",
            " dense_9 (Dense)             (None, 1)                 11        \n",
            "                                                                 \n",
            "=================================================================\n",
            "Total params: 5,040,053\n",
            "Trainable params: 5,039,989\n",
            "Non-trainable params: 64\n",
            "_________________________________________________________________\n"
          ]
…
      "outputs": [
        {
          "output_type": "stream",
          "name": "stdout",
          "text": [
            "Model: \"model_6\"\n",
            "_________________________________________________________________\n",
            " Layer (type)                Output Shape              Param #   \n",
            "=================================================================\n",
            " input_10 (InputLayer)       [(None, 256, 256, 3)]     0         \n",
            "                                                                 \n",
            " sequential_3 (Sequential)   (None, 256, 256, 3)       0         \n",
            "                                                                 \n",
            " rescaling_6 (Rescaling)     (None, 256, 256, 3)       0         \n",
            "                                                                 \n",
            " xception (Functional)       (None, 8, 8, 2048)        20861480  \n",
            "                                                                 \n",
            " global_average_pooling2d_2   (None, 2048)             0         \n",
            " (GlobalAveragePooling2D)                                        \n",
            "                                                                 \n",
            " dropout_6 (Dropout)         (None, 2048)              0         \n",
            "                                                                 \n",
            " dense_10 (Dense)            (None, 1)                 2049      \n",
            "                                                                 \n",
            "=================================================================\n",
            "Total params: 20,863,529\n",
            "Trainable params: 2,049\n",
            "Non-trainable params: 20,861,480\n",
            "_________________________________________________________________\n"
          ]
…
